model.pth (torch_old, 1501 bytes, 5 tensors)

dense1.weight f4 [8, 5]
00000000: eca5 45bf 308c 5fc0 b6e6 8a3f ddfd d2be
00000010: ae61 9f3f 1b3d c43e a92a 533e 1ff2 01bf
00000020: 53b1 af3f 008a 0840 cb95 32bc d5e0 8dbf
00000030: 0487 8abf b58c 79be afef 9a3f c3b0 173f
00000040: 89f7 4bbf 20a1 8d3f 6c30 06c0 a987 7abf
00000050: 7865 acbd 8fd6 8fbe d02a 0f3e f156 82bf
00000060: a76a 7a3f 3521 9fbe e684 693f e7db 8e3f
00000070: 1de7 8fbe 59cb df3f 7669 fa3f 8aba 00c0
00000080: da7f 953f 46ea 82be 60f5 703f c721 cf3e
00000090: 1993 31bf cddd 32bf ca0e 4a3f eefa 08bf
-0.772063 -3.4929314 1.0851657 -0.41209307 1.2451684 0.3832787 0.20621742 -0.5076007
1.372599 2.1334229 -0.010899971 -1.1084238 -1.0822453 -0.24370082 1.2104396 0.5925409
-0.79674584 1.1064796 -2.0967054 -0.9786325 -0.08417791 -0.28093383 0.13981175 -1.0182782
0.9781899 -0.31080022 0.9121841 1.1160859 -0.28106013 1.7483932 1.9563434 -2.0113854
1.1679642 -0.2556936 0.9412441 0.40455458 -0.6936508 -0.6986969 0.78928816 -0.5350789

dense1.bias f4 [8]
00000000: 845a b93e b05d 953e 9f17 9ebe 202c 36bc
00000010: 08b9 e13e bb63 b4be 989f 8bbe 8a72 de3e
0.3620187 0.2917304 -0.30877396 -0.011118919 0.4408648 -0.35232338 -0.27270198 0.4344676

dense2.weight f4 [6, 8]
00000000: 94e9 17bf 503f 79bf 83fe 363d 505f 85be
00000010: 0899 ce3f 4dad 233f d3a6 ba3e 581c 433e
00000020: 524e cdbf c526 fa3d ab1f 12be 3d8f f63e
00000030: 5dbb 9d3f 7f48 313f 8fc6 9bbf c923 253e
00000040: ab20 17be 4a05 8bbf c5a8 45bf ca92 43bf
00000050: d8c6 683f 2c6e ce3f 5dcf c7bd 404d 4c3f
00000060: 7916 813f a396 b43e 9108 69bf cc03 1cbf
00000070: 74fb 04c0 ad58 5d3e 1d55 343e 9d73 b9bf
00000080: 62c5 c73d b9f3 903e e465 0940 2ebc c93f
00000090: d5f9 8a3f e3ff 3e3e 31ce 823b 4eed 373e
000000a0: c543 b5bf e8ac 813f a9b5 00bf cf2f e53f
000000b0: a99b 1ebe 6be7 f0be 3b21 613f 4dd5 3cbf
-0.59340787 -0.9736223 0.044676315 -0.2604928 1.6140451 0.6393631 0.36455402 0.19053781
-1.6039526 0.12214426 -0.14269893 0.48156157 1.2322804 0.69251245 -1.216997 0.16126932
-0.14758556 -1.0860989 -0.77210647 -0.7639586 0.9092841 1.6127372 -0.09756348 0.79805374
1.0084983 0.35271177 -0.91028696 -0.60943294 -2.0778475 0.21615858 0.17610593 -1.4488407
0.09754445 0.28310946 2.146844 1.5760553 1.0857493 0.186523 0.003991865 0.17961618
-1.4161307 1.0130892 -0.5027719 1.7905215 -0.15489067 -0.47051558 0.8794133 -0.7376297

dense2.bias f4 [6]
00000000: 06e7 76be 33fe b13e 0931 54be e510 69be
00000010: e2a6 7a3e 6dfe 953e
-0.24111566 0.3476425 -0.2072183 -0.22760351 0.24477723 0.29295674

dense3.weight f4 [1, 6]
00000000: 4d37 b03f 1ed2 b33f e6cb ac3f 15f7 b6bf
00000010: df3e 3abf 6811 963f
1.3766876 1.4048498 1.3499725 -1.4294153 -0.72752184 1.1724062
